save/finetunemodel/HARno_pre0.1_classifier.pt (torch, 773644 bytes, 8 tensors)

model.0.weight f4 [306, 618]
-0.015115565 0.028782764 0.022869125 0.00043839167 0.008965824 -0.0019354027 0.005113874 -0.015120073
-0.01858246 0.020180259 0.00934399 -0.01144401 0.013383899 -0.009537786 -0.018707067 0.027409954
0.0047746114 0.015333232 -0.003568579 -0.03221378 0.030478489 0.019556748 0.019249538 -0.0075809797
0.0041853883 -0.018193403 0.016470304 -0.012524749 0.04324008 0.020915993 -0.021478014 -0.020668838
-0.024440974 0.0010534105 -0.025880756 0.008124375 -0.006053031 0.013888946 0.003146107 0.005421072
-0.0016859812 -0.02187451 -0.017714027 -0.034518205 0.00024250284 -0.0020890317 -0.027392302 -0.035606775
-0.040220685 -0.037946053 -0.03800637 0.02201596 0.023375329 0.027625343 0.02607872 0.036601555
0.023783205 0.041734237 -0.0014204026 0.0189245 0.008301493 -0.007181443 -0.03737481 0.031871524
-0.0070438525 0.02013232 0.018211138 -0.028855793 0.0047583417 -0.014840072 0.041801132 -0.027813833
0.0035728947 0.0016059708 -0.016837034 0.012296264 -0.026849847 -0.023438664 -0.021895735 -0.03406349
-0.018021852 -0.0071629183 -0.047767263 3.074643e-05 -0.020102154 0.023172991 -0.0079934215 -0.024484677
-0.011660737 0.012156135 0.0029061073 -0.04022835 -0.0023426134 0.020443477 0.046592005 -0.010061496
-0.004368233 0.036835443 -0.039403666 -0.0006884232 0.035788022 0.012658907 0.031789508 0.0023851844
0.045414496 -0.00674943 -0.0049468107 -0.0019982525 -0.03886988 -0.03372214 -0.042237483 0.034953605
0.030828504 -0.036287155 -0.028074905 0.026284713 0.036323525 -0.030780284 0.02871927 0.03305167
-0.034928948 0.036448713 -0.021710813 -0.022250064 0.017421292 0.028463425 0.007127488 0.0199172
0.03251288 -0.015505106 -0.01461482 0.009503564 -0.03762024 0.0046387855 -0.019763906 -0.01610438
0.02584422 -0.01439954 -0.013083225 0.009674522 0.024450136 -0.009804312 -0.021992572 -0.014932825
-0.023067553 -0.013967189 -0.00083952 -0.02037102 -0.012444334 -0.0244611 0.011491878 0.03489647
0.00012214761 0.0029934116 -0.008967793 -0.013676255 0.01227569 -0.025491644 0.0030366757 -0.027767343
-0.04268839 -0.013447512 -0.030808205 0.038024332 -0.012663483 0.022958042 0.02555648 -0.004078215
0.025114909 0.034634937 -0.0018375228 0.01541897 0.025798908 0.0048351684 -0.013518595 0.013916208
0.007430457 -0.045131475 -0.027054468 -0.022274796 -0.028159218 -0.004919953 -0.023117002 0.0062495894
-0.002360073 -0.0069128117 -0.027963486 -0.028667385 -0.010547675 0.0037588917 -0.0013305204 0.011394171
0.0003002615 0.0024024986 -0.0428083 0.013599349 -0.037771918 0.023560585 -0.041921515 0.0118946945
-0.010540516 0.014250962 0.032443378 -0.024686754 -0.008823824 -0.038421415 0.02678616 -0.017677324
-0.012572044 -0.026737534 0.027521638 -0.028499972 -0.012344328 0.03613544 0.033076465 0.027926711
0.007712142 -0.005418072 0.017138002 0.020470707 -0.03440124 -0.014479777 -0.0050491346 -0.01837879
-0.0047077527 0.031025972 0.020935742 0.029084349 -0.01676958 -0.026513768 0.0039652227 -0.023643924
0.00918419 0.0034424919 -0.009533343 -0.027672596 0.0017264801 0.016503498 0.0034591355 0.0321671
-0.01656358 0.012825134 0.016727077 -0.0024701112 -0.013964898 0.016646553 0.013165614 -0.025247386
-0.03100273 -0.04377028 -0.019997073 -0.040850777 0.025540588 -0.047184348 -0.004006498 0.0072113015
00000000: 46a7 77bc d5c9 eb3c 0858 bb3c efd7 e539
00000010: 64e5 123c 57ad fdba 4992 a73b 2fba 77bc
00000020: 3e3a 98bc 1251 a53c 8917 193c a87f 3bbc
00000030: 2448 5b3c 6044 1cbc 903f 99bc d78a e03c
00000040: 5874 9c3b 3c38 7b3c d2de 69bb 99f2 03bd
00000050: 06ae f93c 7935 a03c 35b1 9d3c de69 f8bb
00000060: 9525 893b 550a 95bc bbec 863c 9b34 4dbc
00000070: 831c 313d 0458 ab3c a9f2 afbc b251 a9bc
00000080: 7038 c8bc 9712 8a3a e103 d4bc 191c 053c
00000090: 8158 c6bb 768e 633c eb2e 4e3b 3fa3 b13b
000000a0: 24fc dcba 2c32 b3bc 021d 91bc f662 0dbd
000000b0: 5c48 7e39 23e8 08bb d265 e0bc 69d8 11bd
000000c0: 72be 24bd 526d 1bbd 91ac 1bbd d15a b43c
000000d0: 9e7d bf3c 8b4e e23c 0aa3 d53c 83eb 153d
000000e0: ffd4 c23c 85f1 2a3d cd2c baba 8e07 9b3c
000000f0: fc02 083c 4f52 ebbb 5416 19bd b78b 023d
00000100: 1ed0 e6bb 89ec a43c 862f 953c fc62 ecbc
00000110: ddeb 9b3b c623 73bc aa37 2b3d d6d9 e3bc
00000120: 3a27 6a3b 707f d23a d2ed 89bc 4576 493c
00000130: 36f4 dbbc 7102 c0bc af5e b3bc 2886 0bbd
00000140: 90a2 93bc eab6 eabb 9ba7 43bd baf5 0038
00000150: 46ad a4bc 49d5 bd3c d7f6 02bc 1794 c8bc
00000160: ad0c 3fbc 872a 473c 6474 3e3b 7bc6 24bd
00000170: 8886 19bb 1479 a73c 42d7 3e3d f9d8 24bc
00000180: 6523 8fbb c3e0 163d bd65 21bd 4d77 34ba
00000190: 7696 123d 4e67 4f3c b735 023d c150 1c3b
000001a0: 8d04 3a3d 532a ddbb db18 a2bb 1df5 02bb
000001b0: 0636 1fbd 3a20 0abd 3601 2dbd 832b 0f3d
000001c0: 0f8c fc3c d7a1 14bd 58fd e5bc 0a53 d73c
000001d0: fac7 143d ef26 fcbc ad44 eb3c 3061 073d
000001e0: a811 0fbd 3f4b 153d e0da b1bc c445 b6bc
000001f0: 19b7 8e3c 212c e93c b48d e93b 6529 a33c
00000200: 3a2c 053d 2109 7ebc ff72 6fbc d6b4 1b3c
00000210: ae17 1abd f400 983b eae7 a1bc 55ed 83bc
00000220: 42b7 d33c 0cec 6bbc 065b 56bc e381 1e3c
00000230: a74b c83c 44a2 20bc c429 b4bc cfa8 74bc
00000240: 2af8 bcbc a3d6 64bc 3c13 5cba 20e1 a6bc
00000250: 52e3 4bbc a562 c8bc 6e48 3c3c 9aef 0e3d
00000260: c014 0039 1d2d 443b a6ed 12bc 5f12 60bc
00000270: fa1f 493c dad3 d0bc f702 473b 5778 e3bc
00000280: 05da 2ebd f452 5cbc 7d61 fcbc 67bf 1b3d
00000290: 7f7a 4fbc 8112 bc3c d35b d13c 8ca2 85bb
000002a0: c8bd cd3c 5ddd 0d3d 09d9 f0ba d99f 7c3c
000002b0: 3b58 d33c 5570 9e3b 197d 5dbc cf00 643c
000002c0: 317b f33b c8db 38bd 55a1 ddbc a279 b6bc
000002d0: 29ae e6bc 8f37 a1bb de5f bdbc 5bc9 cc3b
000002e0: 74ab 1abb de84 e2bb ae13 e5bc ddd7 eabc
000002f0: 28d0 2cbc bd57 763b db64 aeba 9eae 3a3c
00000300: 6b6c 9d39 3d73 1d3b c257 2fbd cecf 5e3c
00000310: bab6 1abd 2102 c13c e5b5 2bbd f7e1 423c
00000320: 21b2 2cbc de7c 693c 59e3 043d e03b cabc
00000330: cd91 10bc c65f 1dbd a66e db3c 09d0 90bc
00000340: f9fa 4dbc ac08 dbbc 0f75 e13c c678 e9bc
00000350: dd3f 4abc c102 143d 307b 073d 8fc6 e43c
00000360: 23b6 fc3b 158a b1bb ff64 8c3c 2fb2 a73c
00000370: 51e8 0cbd 963c 6dbc 3673 a5bb 1e8f 96bc
00000380: 7e43 9abb 2e2a fe3c 6f81 ab3c 4d42 ee3c
00000390: 5c60 89bc 6733 d9bc b3ee 813b e7b0 c1bc
000003a0: 4979 163c 6e9b 613b bd31 1cbc a4b1 e2bc
000003b0: 0f4b e23a 5832 873c aab2 623b a6c1 033d
000003c0: 58b0 87bc 8320 523c 3907 893c 97e1 21bb
000003d0: 07cd 64bc 5a5e 883c 96b4 573c 9bd3 cebc
000003e0: 70f9 fdbc 7748 33bd e7d0 a3bc 2553 27bd
000003f0: 7f3a d13c 6044 41bd f148 83bb c84c ec3b

model.0.bias f4 [306]
-0.019332629 0.0353586 0.012742871 -0.035642628 -0.0042221346 0.008774549 0.004222076 0.005932816
-0.007771531 0.039834835 0.034104217 0.010221971 -0.0036672414 -0.039698135 4.9079306e-05 -0.0025034316
0.024186306 -0.024282854 0.02146207 0.010379813 0.035494633 0.024626972 0.035323996 -0.019131027
0.031549 -0.0064960723 0.0031757522 0.016898355 -0.008286627 -0.013873378 0.013189023 -0.034529667
-0.039760944 0.019854393 0.027006177 -0.013801823 0.032449197 -0.032034356 -0.009368979 0.011321614
0.03718511 0.01964479 -0.01256672 -0.009653057 -0.015738668 -0.006789697 -0.009165981 0.011231654
0.039272055 0.019228483 0.021856172 -0.017618116 -0.029098608 0.012085891 0.010231642 0.0044128005
-0.021974111 0.025127633 -0.008940751 0.012828857 -0.02128194 0.038416907 -0.0068015135 -0.01069965
0.033742394 -0.038362436 0.034660216 0.029228058 0.011698429 0.0375671 0.034474302 -0.03932946
-0.004618737 0.036990855 0.024039173 -0.016942397 0.038529593 -0.015409207 -0.005291695 -0.0050438386
0.00080610666 -0.028524365 -0.015691042 -0.015663452 -0.0116153285 -0.033815153 -0.031262364 0.035780746
0.013979855 0.01864685 -0.029355237 0.02895947 0.033590894 -0.007971269 -0.009058275 0.030520575
0.018045714 0.012427976 0.002635213 0.019051708 0.0023596885 -0.025499243 -0.016568707 0.02685822
0.0010281326 -0.026022037 0.0013351948 0.015459711 0.028748695 -0.018413292 0.019591238 -0.039306246
0.025590064 0.01371647 0.0008182859 -0.010983974 0.028650131 -0.03317592 -0.0043986887 -0.035435203
0.034185186 -0.0007877272 -0.021353675 0.015113287 0.0005339222 -0.010651208 0.0067839455 0.03300426
-0.031672124 -0.0128582865 0.013484996 0.018021923 -0.015337101 0.034089576 -0.007714495 -0.0056077135
0.037363287 0.03697316 -0.028256536 0.040324874 0.035014458 0.012194944 0.029575502 0.0023991035
0.030508325 -0.030547481 -0.015329376 -0.03913016 0.0046647517 0.0035951382 0.03189542 0.036373828
0.029060233 -0.03253552 0.029457813 -0.039539523 -0.021221936 0.02891037 0.0039272713 -0.022524443
-0.013106889 -0.008469221 -0.007204798 -0.039664675 -0.039796855 0.016863396 -0.037594642 -0.029917061
-0.022663899 0.031394545 0.0073971082 0.006525465 -0.006981591 -0.008510863 -0.025901232 -0.029573534
0.022545444 0.027472747 -0.029644158 -0.0019967838 0.011997753 0.011686279 -0.006007509 0.03311122
-0.033172846 -0.005258553 -0.021129182 0.0013113734 0.001787672 -0.03645902 0.017560301 0.034028135
0.023244042 -0.011784052 0.035281245 0.02499871 0.016323574 -0.023389062 0.0075998986 -0.033783767
0.007655048 0.039361805 -0.037617844 0.0004910682 0.018611047 -0.035475496 -0.0016302752 0.017348276
0.038232096 0.030334925 0.01080622 0.037075844 0.014143214 -0.03810271 0.023371648 0.008671361
0.0089543555 0.021199329 0.03122072 -0.015641958 0.0029002368 -0.024736678 -0.007837969 -0.021064263
0.021373434 -0.00091117364 0.013960981 0.005255054 0.010503074 0.017110463 -0.039728403 0.02545993
0.0066546286 -0.015692452 0.015111844 0.0032449602 -0.022058494 0.014549301 0.031507067 0.026240837
0.003603703 0.028573483 0.031041065 -0.0022424872 0.032868333 -0.027083637 -0.022575626 -0.0015777842
-0.010624286 0.0050472952 0.029136121 -0.016664855 0.03077756 -0.011566518 -0.007825197 -0.034228317
00000000: 765f 9ebc 2ed4 103d 7ac7 503c 01fe 11bd
00000010: d559 8abb 20c3 0f3c 5759 8a3b 1168 c23b
00000020: 54a8 febb da29 233d ddb0 0b3d 0e7a 273c
00000030: 1a56 70bb 839a 22bd 81da 4d38 9d10 24bb
00000040: 5c22 c63c d6ec c6bc 39d1 af3c 1710 2a3c
00000050: d262 113d 81be c93c e5af 103d acb8 9cbc
00000060: 8639 013d 01dd d4bb 4820 503b 6b6e 8a3c
00000070: a2c4 07bc 2a4d 63bc c616 583c fb6e 0dbd
00000080: 5fdc 22bd aea5 a23c 0f3c dd3c 0b21 62bc
00000090: 73e9 043d 7536 03bd 5980 19bc 4a7e 393c
000000a0: 6a4f 183d 1cee a03c a5e4 4dbc db27 1ebc
000000b0: 61ee 80bc 1b7c debb e92c 16bc f904 383c
000000c0: bcdb 203d 0d85 9d3c b70b b33c de53 90bc
000000d0: 3460 eebc e703 463c 9ea2 273c 4199 903b
000000e0: 0d03 b4bc 77d8 cd3c 3a7c 12bc 2030 523c
000000f0: 7757 aebc 0c5b 1d3d 3bdf debb 964d 2fbc
00000100: 7735 0a3d ee21 1dbd dff7 0d3d ae6f ef3c
00000110: c4aa 3f3c f6df 193d ed34 0d3d ee17 21bd
00000120: c658 97bb b983 173d cded c43c c8ca 8abc
00000130: 35d1 1d3d e676 7cbc f465 adbb c946 a5bb
00000140: e750 533a eeab e9bc 808a 80bc a450 80bc
00000150: 384e 3ebc c281 0abd f70c 00bd d58e 123d
00000160: c30b 653c 47c1 983c 657a f0bc 693c ed3c
00000170: 9b96 093d ed99 02bc 2969 14bc 4906 fa3c
00000180: 9bd4 933c b69e 4b3c 8ab3 2c3b 5412 9c3c
00000190: 01a5 1a3b cae3 d0bc 19bb 87bc c505 dc3c
000001a0: 68c2 863a 2b2c d5bc b401 af3a ba4a 7d3c
000001b0: 6282 eb3c 79d7 96bc ce7d a03c 96ff 20bd
000001c0: 41a2 d13c 0cbb 603c 3d82 563a 20f6 33bc
000001d0: aeb3 ea3c 79e3 07bd e022 90bb 8124 11bd
000001e0: c405 0c3d 7a7f 4eba e7ed aebc b89d 773c
000001f0: eaf6 0b3a 6882 2ebc dc4b de3b 7a2f 073d
00000200: a1ba 01bd 90ab 52bc 2cf0 5c3c b6a2 933c
00000210: 7748 7bbc 83a1 0b3d e0c9 fcbb e9c0 b7bb
00000220: 3f0a 193d 2b71 173d 407a e7bc b22b 253d
00000230: 526b 0f3d 4dcd 473c 5348 f23c 473a 1d3b
00000240: 98ec f93c b63e fabc 1028 7bbc f246 20bd
00000250: c6da 983b 699c 6b3b c6a4 023d b9fc 143d
00000260: ba0f ee3c f743 05bd 8351 f13c 32f4 21bd
00000270: a0d9 adbc 71d5 ec3c 57b0 803b 2e85 b8bc
00000280: 47be 56bc 7dc2 0abc 3a16 ecbb 6d77 22bd
00000290: 0702 23bd 1b25 8a3c d7fc 19bd a014 f5bc
000002a0: a4a9 b9bc 9197 003d 7163 f23b 91d3 d53b
000002b0: d5c5 e4bb 2671 0bbc d22e d4bc 3244 f2bc
000002c0: 39b1 b83c 870e e13c 4ed8 f2bc 79dc 02bb
000002d0: 3992 443c cf77 3f3c a3da c4bb a19f 073d
000002e0: 40e0 07bd f14f acbb 1b17 adbc 64e2 ab3a
000002f0: 5250 ea3a 0e56 15bd 9fda 8f3c 1661 0b3d
00000300: 4a6a be3c e511 41bc 1183 103d 18ca cc3c
00000310: 04b9 853c 6b9a bfbc 9208 f93b d960 0abd
00000320: 32d7 fa3b d839 213d 2b15 1abd 07bb 003a
00000330: 3276 983c c14e 11bd f5ae d5ba f91d 8e3c
00000340: 4299 1c3d f380 f83c 920c 313c d7dc 173d
00000350: f0b8 673c 9611 1cbd e675 bf3c 5312 0e3c
00000360: 4ab5 123c 37aa ad3c 98c2 ff3c 9023 80bc
00000370: e611 3e3b 93a4 cabc d36a 00bc f68e acbc
00000380: 5717 af3c d4db 6eba 99bc 643c 9732 ac3b
00000390: 1615 2c3c 3e2b 8c3c 40ba 22bd 5891 d03c
000003a0: 120f da3b 758d 80bc ab97 773c 66a9 543b
000003b0: 04b4 b4bc 3160 6e3c 8e0d 013d 06f7 d63c
000003c0: 1b2c 6c3b f012 ea3c d549 fe3c b1f6 12bb
000003d0: f2a0 063d 81de ddbc 85f0 b8bc a7cd ceba
000003e0: 7c11 2ebc c863 a53b e0ae ee3c bc84 88bc
000003f0: 3921 fc3c 7e81 3dbc 4135 00bc fe32 0cbd

model.1.weight f4 [306]
1.0329367 1.0177147 1.0191443 1.0234458 1.0120081 1.0194337 1.0119392 1.0310972
1.0253111 1.0208429 1.0228058 1.0204564 1.0184345 1.0111674 1.0220075 1.0126127
1.0302812 1.0178117 1.0029353 1.0219712 1.0150008 1.0189329 1.015643 1.0239569
1.0300369 1.0283781 1.0266215 1.0258583 1.0087328 1.0151964 1.0092992 1.0338917
1.0161332 1.0260344 1.0170817 1.0158538 1.0150381 1.0250467 1.0193254 1.0206972
1.0137659 1.0133418 1.0147694 1.0193845 1.0051596 1.0218475 1.0294303 1.0184033
1.0324221 1.0196536 1.0271257 1.0375221 1.0238479 1.0225381 1.011764 1.0157764
1.0124897 1.0159824 1.0223641 1.0219421 1.022626 1.0206208 1.0108101 1.0233436
1.023926 1.0223961 1.0124457 1.0198884 1.013211 1.0287633 1.0252571 1.0223589
1.0198543 1.0081576 1.0205771 1.0047389 1.008913 1.019981 1.0229034 1.0263212
1.0252386 1.015889 1.0180609 1.0258496 1.0256652 1.0240368 1.0178916 1.0300227
1.0214796 1.0159881 1.0260558 1.0214077 1.0152631 1.0250266 1.0209366 1.0146601
1.0245765 1.0113478 1.0192173 1.0253912 1.0238034 1.0263053 1.0315039 1.0207851
1.0230268 1.025886 1.0257299 1.024163 1.0268947 1.0108916 1.0074874 1.020734
1.012502 1.0238781 1.0119319 1.023992 1.02362 1.0257127 1.0055325 1.039553
1.023756 1.012262 1.0275035 1.0327303 1.0326697 1.015024 1.0227827 1.0154867
1.0173043 1.0265793 1.0226139 1.0308641 1.0198625 1.0253586 1.0252898 1.0247812
1.0235431 1.0128374 1.0262802 1.0267824 1.0255408 1.0224181 1.0128512 1.0234001
1.0301194 1.0230204 1.0334113 1.0228082 1.0234087 1.0205526 1.0209329 1.0190674
1.0329045 1.0223035 1.0208136 1.02293 1.0240902 1.0174097 1.0185896 1.0213228
1.0184399 1.0289216 1.0276989 1.0235578 1.0098159 1.0177248 1.0219781 1.0114496
1.0142753 1.0258623 1.0166644 1.0195765 1.0198544 1.0189072 1.0271436 1.0230186
1.030887 1.0262822 1.0190423 1.0186864 1.0149504 1.0289134 1.0264037 1.0266166
1.010655 1.010143 1.0140163 1.0172025 1.021979 1.0236661 1.0199909 1.0253395
1.0262516 1.0254813 1.0245988 1.0272025 1.0177635 1.0229614 1.0138474 1.0196533
1.0196061 1.0290526 1.0169623 1.0146428 1.0259098 1.0218593 1.0220841 1.0177617
1.0342994 1.0211159 1.0222943 1.0223069 1.0286789 1.0220312 1.0180233 1.0279921
1.016169 1.0201737 1.0197885 1.0247062 1.0263052 1.0206184 1.0198182 1.0213382
1.0215082 1.0174075 1.0222565 1.0242914 1.0155494 1.0273902 1.0276104 1.0230042
1.018009 1.0251479 1.0226003 1.0256205 1.027567 1.0173385 1.0215249 1.0183258
1.0297368 1.025527 1.0253543 1.0243427 1.0250477 1.0134119 1.0276626 1.0249969
1.0196364 1.022591 1.0176412 1.0261075 1.0250599 1.0188425 1.0078437 1.0243756
00000000: 4537 843f 7a44 823f 5273 823f 4600 833f
00000010: 7b89 813f ce7c 823f 3987 813f fefa 833f
00000020: 653d 833f fbaa 823f 4deb 823f 519e 823f
00000030: 105c 823f ef6d 813f 24d1 823f 4b9d 813f
00000040: 41e0 833f a747 823f 2f60 803f f4cf 823f
00000050: 8ceb 813f 656c 823f 9700 823f 0511 833f
00000060: 40d8 833f e5a1 833f 5568 833f 534f 833f
00000070: 281e 813f f5f1 813f b730 813f 9056 843f
00000080: a710 823f 1855 833f bc2f 823f 7f07 823f
00000090: c5ec 813f bb34 833f 4179 823f 35a6 823f
000000a0: 15c3 813f 2fb5 813f f7e3 813f 317b 823f
000000b0: 12a9 803f e6cb 823f 5fc4 833f 0a5b 823f
000000c0: 6826 843f 0284 823f db78 833f 86cd 843f
000000d0: 730d 833f 87e2 823f 7c81 813f f604 823f
000000e0: 4399 813f b60b 823f d4dc 823f 00cf 823f
000000f0: 69e5 823f b4a3 823f 3a62 813f ecfc 823f
00000100: 0210 833f e0dd 823f d297 813f b48b 823f
00000110: e6b0 813f 84ae 833f a03b 833f a8dc 823f
00000120: 968a 823f 4f0b 813f 45a2 823f 499b 803f
00000130: 1024 813f bd8e 823f 80ee 823f 7e5e 833f
00000140: 053b 833f a708 823f d24f 823f 0a4f 833f
00000150: ff48 833f a313 833f 464a 823f c9d7 833f
00000160: d8bf 823f e60b 823f cc55 833f 7dbd 823f
00000170: 24f4 813f 1234 833f 0dae 823f 62e0 813f
00000180: 5325 833f d873 813f b675 823f 0540 833f
00000190: fd0b 833f f95d 833f 5208 843f 16a9 823f
000001a0: 8bf2 823f 3c50 833f 1e4b 833f c617 833f
000001b0: 4971 833f e564 813f 59f5 803f 69a7 823f
000001c0: aa99 813f 700e 833f fc86 813f 2b12 833f
000001d0: fb05 833f 8e4a 833f 4ab5 803f 1310 853f
000001e0: 700a 833f cd91 813f 3c85 833f 8230 843f
000001f0: 852e 843f 4eec 813f 8bea 823f 78fb 813f
00000200: 0737 823f f366 833f 03e5 823f 5bf3 833f
00000210: db8a 823f f33e 833f b23c 833f 082c 833f
00000220: 7603 833f a8a4 813f 265d 833f 9b6d 833f
00000230: ec44 833f 99de 823f 1ca5 813f c6fe 823f
00000240: f4da 833f 55f2 823f d246 843f 61eb 823f
00000250: 0eff 823f 78a1 823f eead 823f cd70 823f
00000260: 3736 843f d7da 823f 05aa 823f 5fef 823f
00000270: 6315 833f 7b3a 823f 2561 823f b5ba 823f
00000280: 3d5c 823f b4b3 833f a38b 833f f103 833f
00000290: a641 813f ce44 823f 2ed0 823f 2e77 813f
000002a0: c6d3 813f 754f 833f 0f22 823f 7c81 823f
000002b0: 978a 823f 8d6b 823f 7179 833f 46f2 823f
000002c0: 1bf4 833f 375d 833f fa6f 823f 5164 823f
000002d0: e5e9 813f 6fb3 833f 3261 833f 2c68 833f
000002e0: 255d 813f 5e4c 813f 49cb 813f b133 823f
000002f0: 35d0 823f 7e07 833f 108f 823f 533e 833f
00000300: 365c 833f f942 833f 0e26 833f 5f7b 833f
00000310: 1346 823f 66f0 823f c0c5 813f 0084 823f
00000320: 7482 823f ffb7 833f d22b 823f d1df 813f
00000330: 0351 833f 49cc 823f a7d3 823f 0446 823f
00000340: ec63 843f edb3 823f 8ada 823f f4da 823f
00000350: c0ab 833f ebd1 823f 964e 823f 3f95 833f
00000360: d311 823f 0d95 823f 6e88 823f 9329 833f
00000370: f85d 833f a0a3 823f 6789 823f 36bb 823f
00000380: c8c0 823f 693a 823f 4dd9 823f fb1b 833f
00000390: 86fd 813f 8681 833f bd88 833f cdf1 823f
000003a0: 1e4e 823f 0c38 833f 91e4 823f 8847 833f
000003b0: 5187 833f 2638 823f 54c1 823f 8058 823f
000003c0: 6ace 833f 7844 833f cf3e 833f a91d 833f
000003d0: c334 833f 7bb7 813f 738a 833f 1933 833f
000003e0: 7283 823f 43e4 823f 1142 823f 7e57 833f
000003f0: 2a35 833f 6e69 823f 0601 813f bd1e 833f

model.1.bias f4 [306]
0.030442165 0.006891753 0.020684702 0.009397906 0.0033755205 0.018819574 0.002845742 0.029735053
0.011875792 0.0056608934 0.02334884 0.01942886 0.0082991775 0.00707451 0.01421228 0.0043948153
0.024684098 0.015198788 -0.0025853368 0.008374548 0.0064634844 0.015359895 0.006375545 0.010914485
0.008594528 0.020782493 0.022658024 0.017790534 0.0026179038 0.0074163456 0.0027803574 0.024355171
0.0048413696 0.020143349 0.015204078 0.0026550926 0.00633719 0.016606616 0.004841839 0.007590052
0.009598149 0.0029606784 0.011001066 0.0031485274 -0.005017615 0.014337454 0.022318028 0.011813171
0.031621557 0.014385346 0.015575044 0.022115383 0.021182036 0.015166158 0.010023966 0.006176764
0.0028425225 0.011245971 0.010819104 0.011753987 0.015578365 0.011744232 0.01054257 0.016932026
0.007546465 0.019130712 -0.0006997777 0.00969163 0.0039861402 0.027578918 0.02223056 0.019101935
0.013995512 0.006632391 0.01628499 0.0016212288 0.004411866 0.009773803 0.014982072 0.013129985
0.014972908 0.013062421 0.0027833506 0.014782772 0.025308708 0.01427208 0.006797034 0.022051413
0.009984476 0.005214774 0.018702848 0.011386836 0.008903861 0.011793225 0.007150002 0.0025665867
0.015719678 0.002375063 0.010574396 0.01578949 0.0083498955 0.023580536 0.028545054 0.005885494
0.01897788 0.014639112 0.009510549 0.020016404 0.019265039 0.0032573207 0.0070800646 0.01431683
0.0048063817 0.022926155 0.0068638343 0.016394846 0.02190723 0.023348102 0.002603069 0.02688485
0.013984061 0.0034793983 0.016631274 0.025259303 0.023632929 0.017304167 0.014787887 0.0031109964
0.0050761322 0.011758703 0.008252691 0.025299631 0.02349693 0.019326111 0.01510378 0.015016615
0.010995506 0.007414808 0.015438497 0.011753447 0.013281356 0.000722769 0.002269518 0.017654674
0.016136989 0.0076234997 0.029443111 0.005126846 0.012276756 0.008396593 0.011717589 0.01469282
0.024971154 0.011827396 0.011757602 0.009900577 0.019851193 0.008507285 0.013167087 0.006967965
0.017731387 0.010159993 0.01329768 0.015308024 0.008543673 0.005671448 0.017222878 0.008629883
0.0012476096 0.003858496 0.010667518 0.0120874345 0.015116179 0.003515134 0.021112254 0.011958645
0.026807018 0.005352278 0.005201357 0.0099623585 0.006470837 0.027897911 0.02487257 0.024664164
0.007436341 0.006353067 0.0034482507 0.010706122 0.013058528 0.013250885 0.0035257256 0.01444121
0.01780002 0.020910505 0.013022376 0.020345297 0.012638269 0.007874825 0.010837661 0.007230552
0.011233087 0.020477517 0.010195182 0.0069943094 0.021978218 0.01203393 0.01637983 0.0009869476
0.029353285 0.008980179 0.017301697 0.017329311 0.01479722 0.0075265397 0.013728768 0.021533487
0.013433391 0.013569586 0.0054304213 0.015192384 0.0054701935 0.0036354787 0.01771724 0.0173264
0.0150545435 0.00525592 0.010577254 0.011887026 0.01640089 0.021937246 0.02004839 0.014837477
0.013838669 0.015914973 0.019887602 0.018724732 0.012940793 0.011528593 0.017661143 0.009457923
0.01697201 0.020304695 0.022633225 0.017115055 0.023523971 0.01048145 0.016377792 0.02506089
0.014660774 0.009305971 0.0062544183 0.022195727 0.021862602 0.008209673 -0.00023318118 0.014246833
00000000: d961 f93c 37d4 e13b f772 a93c adf9 193c
00000010: d637 5d3b 822b 9a3c a17f 3a3b ed96 f33c
00000020: af92 423c 047f b93b 1146 bf3c 4629 9f3c
00000030: 46f9 073c 4bd1 e73b 9fda 683c 6202 903b
00000040: 4e36 ca3c 5604 793c c16e 29bb 6635 093c
00000050: a3cb d33b 12a8 7b3c f3e9 d03b abd2 323c
00000060: 10d0 0c3c 0c40 aa3c 529d b93c 74bd 913c
00000070: 2391 2b3b d104 f33b a836 363b 7f84 c73c
00000080: 5aa4 9e3b aa03 a53c 861a 793c 1001 2e3b
00000090: 34a8 cf3b 990a 883c 4aa8 9e3b f9b5 f83b
000000a0: 8e41 1d3c f107 423b d13d 343c 8657 4e3b
000000b0: ce6a a4bb a4e7 6a3c 4cd4 b63c 088c 413c
000000c0: 9b85 013d 84b0 6b3c 782e 7f3c 522b b53c
000000d0: f385 ad3c 7a7b 783c 903b 243c 7466 ca3b
000000e0: 9d49 3a3b 0541 383c 9c42 313c cb93 403c
000000f0: 663c 7f3c e16a 403c beba 2c3c 08b5 8a3c
00000100: 5648 f73b 03b8 9c3c 4971 37ba a4c9 1e3c
00000110: 2b9e 823b 2fed e13c dd1c b63c a97b 9c3c
00000120: 6f4d 653c 8754 d93b 1968 853c 697f d43a
00000130: 6a91 903b 4d22 203c 5d77 753c 261f 573c
00000140: ee50 753c c403 563c e068 363b 7133 723c
00000150: 3554 cf3c 71d5 693c a7b9 de3b 2aa5 b43c
00000160: ed95 233c b2e0 aa3b b736 993c da8f 3a3c
00000170: 80e1 113c 5f38 413c 904a ea3b 2e34 283b
00000180: 8ec6 803c f2a6 1b3b 3b40 2d3c f658 813c
00000190: 00ce 083c f82b c13c 51d7 e93c 1adb c03b
000001a0: 8077 9b3c e3d8 6f3c 22d2 1b3c 71f9 a33c
000001b0: b7d1 9d3c c678 553b e3ff e73b 2391 6a3c
000001c0: da7e 9d3b a2cf bb3c 04ea e03b 7c4e 863c
000001d0: cb76 b33c 8544 bf3c 4098 2a3b 9e3d dc3c
000001e0: 671d 653c 9e06 643b 4f3e 883c 99ec ce3c
000001f0: d899 c13c 78c1 8d3c e548 723c dce1 4b3b
00000200: af55 a63b 93a7 403c 4b36 073c 2c41 cf3c
00000210: a27c c03c cb51 9e3c d875 773c 4008 763c
00000220: 7f26 343c ebf7 f23b c0f1 7c3c 8891 403c
00000230: 0b9a 593c 3578 3d3a 32bc 143b 89a0 903c
00000240: b831 843c 8dce f93b ae32 f13c 1aff a73b
00000250: 7224 493c dd91 093c 21fb 3f3c 27ba 703c
00000260: 4e90 cc3c b2c7 413c f5a2 403c 0836 223c
00000270: f89e a23c 2462 0b3c c4ba 573c 8753 e43b
00000280: 6a41 913c 1976 263c 83de 593c 82ce 7a3c
00000290: c3fa 0b3c 8ed7 b93b fe16 8d3c 5a64 0d3c
000002a0: d586 a33a d2de 7c3b d0c6 2e3c 600a 463c
000002b0: daa9 773c 2a5e 663b 9bf3 ac3c 31ee 433c
000002c0: 649a db3c 2962 af3b 2570 aa3b 2939 233c
000002d0: 5109 d43b 298a e43c 8fc1 cb3c 800c ca3c
000002e0: 8dac f33b 632d d03b 0cfc 613b bb68 2f3c
000002f0: 70f3 553c 3d1a 593c dc0f 673b d39a 6c3c
00000300: 59d1 913c 824c ab3c ce5b 553c 2eab a63c
00000310: be10 4f3c 6905 013c 7290 313c 44ee ec3b
00000320: fb0a 383c 77c0 a73c b109 273c 8530 e53b
00000330: aa0b b43c f629 453c fe2e 863c 775c 813a
00000340: 4d76 f03c 9a21 133c 4abc 8d3c 33f6 8d3c
00000350: 0a70 723c 31a1 f63b a0ee 603c ff66 b03c
00000360: ba17 5c3c f852 5e3c adf1 b13b 7ae9 783c
00000370: 4f3f b33b 3641 6e3b bf23 913c 18f0 8d3c
00000380: 55a7 763c da39 ac3b 384c 2d3c cdc1 423c
00000390: 295b 863c bdb5 b33c 853c a43c e418 733c
000003a0: 96bb 623c 1e60 823c 53eb a23c 9c64 993c
000003b0: 9f05 543c 6ce2 3c3c 1aae 903c 67f5 1a3c
000003c0: e208 8b3c 0856 a63c 5069 b93c df34 8c3c
000003d0: 58b5 c03c 63ba 2b3c b82a 863c 7f4c cd3c
000003e0: be33 703c 1278 183c ddf1 cc3b d0d3 b53c
000003f0: 3319 b33c dd81 063c 1982 74b9 8c6b 693c

model.1.running_mean f4 [306]
-0.0518339 -0.12221805 0.5728449 -0.53338605 0.5956735 -0.15524288 -0.0801316 0.54808927
-0.07842774 0.14057384 -0.15359493 -0.16614805 -0.20237295 0.19535063 0.08228405 -0.42654964
-0.007937309 0.6340305 0.14064778 0.0047127698 -0.28567237 -0.31205726 -0.05018743 -0.46231055
-0.11770963 -0.16085161 0.10465516 0.11146404 -0.10877456 -0.004082644 -0.25110582 0.1401123
-0.029128714 0.04288151 0.8556629 -0.39342478 -0.07454339 0.028920213 -0.3384995 -0.18697909
0.22083712 0.26646742 0.5610066 0.004614023 -0.37496892 -0.5838595 0.07346027 0.63829255
0.6001389 -0.37038717 -0.024310231 0.8448171 -0.360578 -0.0967183 0.8086773 0.06954127
-0.35957214 0.35439625 -0.3619584 0.19410236 -0.35112146 -0.12678798 0.2539906 -0.04196217
-0.49317276 0.0128463125 0.09945262 -0.1701402 0.063411154 0.986265 -0.023702772 0.4136262
0.7496673 0.49009952 -0.1504521 0.5034078 -0.025676483 -0.40007842 0.43739197 -0.05105185
-0.058347154 0.32457563 0.17659128 -0.101128295 0.7967328 -0.09013876 -0.06541287 -0.1602017
-0.2875272 -0.15266286 0.113074414 -0.31514478 -0.008637989 -0.39352193 -0.14098759 -0.2669706
0.0847929 -0.06435816 0.22804374 -0.15717793 -0.18063936 -0.27741 0.8328825 -0.11071904
-0.33644494 0.271056 -0.2160698 -0.17928484 -0.38341758 0.47471398 0.35812083 0.2438151
0.14936493 -0.2672627 0.60978955 -0.3202648 -0.16776893 0.6338253 -0.13918942 0.69494575
-0.1440962 -0.1681257 0.06887338 0.14194006 0.3396038 0.3176423 0.16104765 -0.10541893
-0.4110986 -0.4619765 -0.3427476 0.25437585 0.596008 0.15723976 -0.23045534 -0.002795666
0.095931925 0.5024698 -0.056863032 0.18742412 -0.15274581 0.037994448 -0.38096833 -0.4785863
-0.40899006 -0.2886432 0.76299053 -0.16906892 -0.4028797 -0.2094208 -0.28562626 0.7293469
0.3130392 -0.30377543 0.33372602 0.23455475 -0.33077088 -0.17669737 -0.17087133 -0.2646473
0.7065805 -0.03175004 0.32661432 -0.23910032 0.28863978 -0.34190091 -0.50012136 -0.13850203
0.059445225 -0.1320347 0.5522589 -0.24803539 -0.16949521 -0.3593613 0.041290384 -0.18233138
0.74772304 -0.39491022 -0.1771117 -0.08604731 -0.3221801 0.6304419 -0.35279307 -0.0541911
0.33643398 -0.18654296 0.43364042 0.11429664 0.16998875 -0.31544888 -0.29784372 0.1528414
0.15005176 0.18661052 -0.12886871 0.09302067 -0.45633507 -0.024967039 0.33243802 -0.060268965
-0.13005543 0.12118134 0.045510817 -0.0053951195 0.55948675 0.29625213 -0.24164838 -0.07998717
0.77895314 -0.2771818 0.2475323 -0.17603844 -0.09791391 -0.6940186 -0.120115966 0.0055565317
0.66202134 0.23147283 -0.35999098 -0.36518794 -0.5092163 -0.31835547 -0.037685215 -0.3590498
0.7660149 -0.40643144 -0.15896016 0.03461662 -0.4375556 -0.44009915 -0.2806954 0.17409575
0.018236654 -0.34217635 0.23504479 0.35811868 -0.06436157 0.08050887 0.15925066 -0.049169134
-0.23224045 0.3670579 0.0981298 0.03707384 -0.1959793 0.5692456 -0.04222782 0.13416523
0.2726613 0.21585083 -0.042133044 0.73749614 0.096201725 -0.35470214 0.09236529 0.07589647
00000000: c94f 54bd 754d fabd f7a5 123f fd8b 08bf
00000010: 0f7e 183f fdf7 1ebe 091c a4bd 944f 0c3f
00000020: b99e a0bd 97f2 0f3e fd47 1dbe b722 2abe
00000030: db3a 4fbe ff09 483e 8a84 a83d b764 dabe
00000040: 7d0b 02bc d34f 223f f905 103e 946d 9a3b
00000050: a643 92be f8c5 9fbe 5691 4dbd f8b3 ecbe
00000060: bf11 f1bd 49b6 24be 7255 d63d 4247 e43d
00000070: 32c5 debd b3c7 85bb f190 80be 9979 0f3e
00000080: 579f eebc 86a4 2f3d b90c 5b3f f96e c9be
00000090: 34aa 98bd 15ea ec3c ce4f adbe 7277 3fbe
000000a0: 2023 623e 6b6e 883e 219e 0f3f 3b31 973b
000000b0: edfb bfbe d177 15bf 5772 963d 2467 233f
000000c0: b4a2 193f 63a3 bdbe 4026 c7bc ef45 583f
000000d0: ae9d b8be 3e14 c6bd 7a05 4f3f a76b 8e3d
000000e0: d719 b8be 6d73 b53e 9d52 b9be c5c2 463e
000000f0: 31c6 b3be b5d4 01be 0e0b 823e 86e0 2bbd
00000100: 2481 fcbe 5779 523c d1ad cb3d 3c39 2ebe
00000110: b5dd 813d dd7b 7c3f 512c c2bc d0c6 d33e
00000120: 32ea 3f3f 53ee fa3e 1e10 1abe 55df 003f
00000130: 7d57 d2bc 14d7 ccbe d7f1 df3e bf1b 51bd
00000140: 6dfd 6ebd c72e a63e 58d4 343e 5a1c cfbd
00000150: aef6 4b3f ac9a b8bd 2ff7 85bd ea0b 24be
00000160: c436 93be a753 1cbe 8f93 e73d a85a a1be
00000170: 5a86 0dbc b57b c9be 0d5f 10be 5fb0 88be
00000180: e6a7 ad3d 36ce 83bd 4c84 693e 40f3 20be
00000190: 86f9 38be af08 8ebe ca37 553f aac0 e2bd
000001a0: 8342 acbe dac7 8a3e 6741 5dbe 7296 37be
000001b0: 4f4f c4be b60d f33e 9d5b b73e aaaa 793e
000001c0: 1ff3 183e a8d6 88be 2b1b 1c3f bff9 a3be
000001d0: 9ecb 2bbe 6042 223f ac87 0ebe f7e7 313f
000001e0: f48d 13be 2529 2cbe 7d0d 8d3d bc58 113e
000001f0: 8de0 ad3e 03a2 a23e ade9 243e e1e5 d7bd
00000200: 847b d2be 2f88 ecbe 9d7c afbe 8d3d 823e
00000210: fb93 183f 7603 213e 7cfc 6bbe 7e37 37bb
00000220: f577 c43d dca1 003f 36e9 68bd 1cec 3f3e
00000230: 6669 1cbe 11a0 1b3d 480e c3be 4309 f5be
00000240: 2567 d1be 0bc9 93be 5953 433f 6720 2dbe
00000250: 3f46 cebe 6872 56be 9b3d 92be 7ab6 3a3f
00000260: ad46 a03e 7488 9bbe 23de aa3e 1f2f 703e
00000270: cd5a a9be 28f0 34be e5f8 2ebe da7f 87be
00000280: 76e2 343f 540c 02bd fe39 a73e b7d6 74be
00000290: 98c8 933e a30d afbe f407 00bf 7ad3 0dbe
000002a0: d67c 733d 1b34 07be d760 0d3f fdfc 7dbe
000002b0: 2790 2dbe 34fe b7be 1b20 293d 14b5 3abe
000002c0: c76a 3f3f ac31 cabe c55c 35be 9239 b0bd
000002d0: caf4 a4be a464 213f 4ba1 b4be 7df7 5dbd
000002e0: 1341 ac3e 1e05 3fbe 1e06 de3e 5b14 ea3d
000002f0: 8811 2e3e 8482 a1be f97e 98be 7582 1c3e
00000300: 2ba7 193e d416 3f3e 29f6 03be 9f81 be3d
00000310: c0a4 e9be ad87 ccbc 5135 aa3e 97dc 76bd
00000320: 402d 05be ec2d f83d 8d69 3a3d 8bc9 b0bb
00000330: 863a 0f3f 5cae 973e ac72 77be 50d0 a3bd
00000340: 7969 473f c6ea 8dbe 1b79 7d3e 6c43 34be
00000350: 1787 c8bd 34ab 31bf 5cff f5bd 9113 b63b
00000360: 3b7a 293f 3707 6d3e bd50 b8be eaf9 babe
00000370: 005c 02bf 7dff a2be d05b 1abd 60d5 b7be
00000380: 8d19 443f c817 d0be 74c6 22be 28ca 0d3d
00000390: 4a07 e0be ad54 e1be 4fb7 8fbe 2846 323e
000003a0: 0965 953c bd31 afbe 95af 703e 555b b73e
000003b0: 00d0 83bd d6e1 a43d 9b12 233e 9365 49bd
000003c0: 71d0 6dbe 03ef bb3e 47f8 c83d bdda 173d
000003d0: ccae 48be 14ba 113f 14f7 2cbd 9c62 093e
000003e0: 439a 8b3e 0008 5d3e b393 2cbd 8ccc 3c3f
000003f0: 6905 c53d 859b b5be 032a bd3d 9c6f 9b3d

model.1.running_var f4 [306]
0.6640007 0.30908555 0.86661 0.90170807 1.0323687 0.5519677 1.0847497 0.55054516
0.29897988 0.34171402 1.4605464 0.44039336 0.43270332 0.36253735 0.36918226 1.2481563
0.67916226 0.72414637 0.6483223 0.8676145 0.83020574 0.75754046 0.7955269 0.32560757
0.8100479 0.24994646 0.32797122 0.5464808 0.32067826 0.6261784 0.41199905 0.5639957
0.3074313 0.60830617 1.3948859 0.7657992 0.90403247 0.44049248 0.37078503 0.27127457
1.1639382 0.6760439 0.82765454 1.0984421 0.5081679 0.5947944 0.6138498 0.67433715
0.9475436 0.6250739 0.35767746 1.663311 0.5189226 0.4566943 0.71038747 0.4421659
0.5592901 1.1944726 0.43183553 0.9058069 0.40585092 0.46537396 0.5048284 0.2825139
0.37449896 0.49543774 0.8631313 1.3138872 0.61607987 1.2269511 0.40242222 0.6425638
1.2664912 0.40304708 0.6709179 0.91983765 0.5915707 0.38979188 0.34676284 0.3125495
0.41569462 0.28696346 0.8098619 0.3565946 1.2307159 0.58435506 0.56743217 0.4117572
0.49895284 0.22411832 0.28757012 0.74832046 0.41449726 0.40295097 0.37430966 0.634626
0.48112562 0.37219766 0.5193364 0.37709904 0.4723959 0.59854424 1.2986346 0.49206793
0.5228149 0.36641595 0.3808155 0.56227076 0.4496192 0.49014136 0.55533564 0.44863078
0.74973214 0.5341381 1.0311184 0.4776306 0.3949541 0.8844886 0.76447976 1.6024774
0.4885091 0.44535953 0.40647176 0.39852026 0.3306247 0.48504856 0.3931325 0.29305288
0.45682225 0.33025235 0.57171494 0.44522324 0.98361415 0.45219675 0.4343361 0.42235118
0.27075395 0.629041 0.34546208 0.3007582 0.5827245 0.25297248 0.36539176 0.76391405
0.28913447 0.3222963 1.2388483 0.44647834 0.7352642 0.34914097 0.8325349 1.1347157
0.7333513 0.5047294 0.3543805 0.7257684 0.5406836 0.44528294 0.5050554 1.476696
0.8675472 0.3377956 0.42920986 0.5594799 0.47215772 0.34570464 0.5412057 0.8368874
0.3959731 0.59256333 0.40323925 0.6362318 0.47479418 0.34546688 0.42035842 0.4557958
1.2525998 0.30452335 0.2857237 0.6474885 0.47614908 0.8604342 0.60908055 0.5636261
0.41883686 0.34515408 0.72204053 0.41080925 2.020741 0.40629965 0.57653254 0.5258729
0.42161933 0.5463794 0.32666156 0.735483 0.4227759 0.47648543 0.38656995 0.3457495
0.3923166 0.34662697 0.41015503 0.63789 0.5082821 0.7781298 0.5950288 0.21254468
0.85028815 0.8479202 0.3887784 0.405793 0.25655922 1.3833303 0.5352157 0.5280544
0.7826439 0.5309837 0.31470057 0.41298935 0.5439041 0.40886435 0.6165054 0.3547813
0.8542725 0.9162976 1.0256389 0.29563904 0.68747723 0.5524857 0.57898027 0.452241
0.6284995 0.82654047 0.43963224 0.5162057 0.41243693 0.341443 0.70488274 0.7334916
0.49225286 0.4912135 0.2302902 0.35670912 0.6313096 0.5389514 0.4203008 0.69934434
0.50679344 0.40869275 0.41749907 1.0772071 0.31391105 0.73272544 1.1802635 0.52512604
00000000: f3fb 293f 7640 9e3e 27da 5d3f 57d6 663f
00000010: a824 843f c14d 0d3f 14d9 8a3f 87f0 0c3f
00000020: e413 993e 24f5 ae3e 2ff3 ba3f 3d7b e13e
00000030: 4a8b dd3e 7f9e b93e 7505 bd3e 96c3 9f3f
00000040: 94dd 2d3f a861 393f 73f8 253f fc1b 5e3f
00000050: 5d88 543f 2cee 413f a7a7 4b3f 09b6 a63e
00000060: 4d5f 4f3f f7f1 7f3e d8eb a73e 2ae6 0b3f
00000070: f12f a43e 3a4d 203f 8af1 d23e 0662 103f
00000080: a367 9d3e f4b9 1b3f 9f8b b23f 6b0b 443f
00000090: ac6e 673f 3b88 e13e 89d7 bd3e 80e4 8a3e
000000a0: edfb 943f 3711 2d3f 2be1 533f c099 8c3f
000000b0: 4b17 023f 7244 183f 4325 1d3f 5ca1 2c3f
000000c0: 3892 723f d804 203f 8021 b73e 60e7 d43f
000000d0: 1dd8 043f d6d3 e93e f4db 353f 9263 e23e
000000e0: a32d 0f3f 7ae4 983f 8c19 dd3e f6e2 673f
000000f0: b1cb cf3e 7f45 ee3e 6f3c 013f a9a5 903e
00000100: 54be bf3e 04aa fd3e 2cf6 5c3f 752d a83f
00000110: 69b7 1d3f bc0c 9d3f 490a ce3e 107f 243f
00000120: 621c a23f 305c ce3e 47c1 2b3f 7b7a 6b3f
00000130: 2d71 173f cd92 c73e e68a b13e 7d06 a03e
00000140: edd5 d43e e0ec 923e 1c53 4f3f 9193 b63e
00000150: 1988 9d3f 4b98 153f 3c43 113f d7d1 d23e
00000160: bf76 ff3e 467f 653e 643c 933e ee91 3f3f
00000170: fc38 d43e 974f ce3e 84a5 bf3e d976 223f
00000180: 1956 f63e b190 be3e 3bf3 043f 2013 c13e
00000190: e0dd f13e 323a 193f a939 a63f 54f0 fb3e
000001a0: 33d7 053f df9a bb3e 40fa c23e faf0 0f3f
000001b0: 7d34 e63e cff3 fa3e 7a2a 0e3f efb2 e53e
000001c0: 72ee 3f3f 46bd 083f b0fb 833f ff8b f43e
000001d0: 6c37 ca3e d86d 623f f2b4 433f fb1d cd3f
000001e0: dd1d fa3e 2a06 e43e 111d d03e d90a cc3e
000001f0: a447 a93e 4958 f83e aa48 c93e 070b 963e
00000200: 9be4 e93e d616 a93e e95b 123f 4df4 e33e
00000210: 23ce 7b3f 5586 e73e 4d61 de3e 6a3e d83e
00000220: 43a0 8a3e d508 213f 68e0 b03e fbfc 993e
00000230: 6f2d 153f 9c85 813e a114 bb3e df8f 433f
00000240: 6f09 943e 0504 a53e 9592 9e3f cf98 e43e
00000250: 463a 3c3f 9bc2 b23e 0221 553f 5d3e 913f
00000260: e9bc 3b3f f235 013f 5c71 b53e f5cb 393f
00000270: 3e6a 0a3f 20fc e33e 504b 013f 6004 bd3f
00000280: 9317 5e3f 8bf3 ac3e 65c1 db3e 133a 0f3f
00000290: a8be f13e 3300 b13e 758c 0a3f 413e 563f
000002a0: fcbc ca3e 3bb2 173f 6075 ce3e 16e0 223f
000002b0: 3918 f33e 09e1 b03e 3839 d73e 115e e93e
000002c0: 3155 a03f 7cea 9b3e 604a 923e cec1 253f
000002d0: d0c9 f33e 6a45 5c3f b4ec 1b3f cd49 103f
000002e0: c971 d63e 09b8 b03e a6d7 383f 9755 d23e
000002f0: d253 0140 8206 d03e a397 133f 9b9f 063f
00000300: 7dde d73e 85df 0b3f 2f40 a73e 9d48 3c3f
00000310: 1576 d83e e6f5 f33e 7fec c53e 1406 b13e
00000320: b9dd c83e 1779 b13e d7ff d13e c24c 233f
00000330: c71e 023f 8433 473f cf53 183f 50a5 593e
00000340: 7cac 593f 4c11 593f f60d c73e 1ac4 cf3e
00000350: bb5b 833e f810 b13f e503 093f 932e 073f
00000360: 5a5b 483f 8cee 073f 6f20 a13e 5773 d33e
00000370: 4d3d 0b3f ab56 d13e 4cd3 1d3f e5a5 b53e
00000380: 9ab1 5a3f 7b92 6a3f 2348 833f 005e 973e
00000390: 82fe 2f3f b46f 0d3f 0d38 143f 228c e73e
000003a0: 58e5 203f 2898 533f 7a17 e13e 0f26 043f
000003b0: ef2a d33e 9ed1 ae3e 3273 343f 1bc6 3b3f
000003c0: 9108 fc3e 5680 fb3e 32d1 6b3e 94a2 b63e
000003d0: 829d 213f b8f8 093f ab31 d73e 3b08 333f
000003e0: 37bd 013f 2d40 d13e 70c2 d53e ece1 893f
000003f0: f3b8 a03e e593 3b3f e012 973f a96e 063f

model.3.weight f4 [6, 306]
0.054245535 0.04288154 0.0031128384 -0.03595177 -0.044732183 0.026810672 -0.025556395 0.023038007
0.056417685 -0.03948082 0.053587686 0.02597165 -0.05246101 -0.021349242 0.05884 -0.04853534
0.018066533 -0.0039588097 -0.05657609 -0.027646612 -0.008562518 -0.031002969 -0.011354542 0.01363237
-0.025683325 0.033595644 0.07017968 0.021314451 -0.021844842 -0.058392454 0.034602314 0.05840956
-0.014285908 0.013373831 -0.023615371 0.029261744 -0.024617428 -0.061945904 0.007442297 0.07721956
-0.0021381052 0.039543286 0.010466472 -0.03136714 0.015959825 0.007885153 0.07384419 -0.050132982
0.005800321 -0.04337964 -0.049870916 -0.077937946 0.050475862 -0.046323594 -0.03435535 -0.06751534
-0.054052234 -0.007650136 0.05141544 0.03618842 0.063922115 -0.0453371 0.026914263 -0.011192704
0.0025188099 0.04760388 -0.062289994 -0.053509347 -0.004619233 -0.0058403797 -0.0035616895 -0.013898902
-0.06079219 0.026263958 0.025399169 -0.030251445 -0.030372595 -0.00267723 0.020607812 0.04046997
-0.030113911 -0.02825649 -0.05349342 -0.032613344 -0.06739405 -0.0071777534 0.0179205 0.015226444
0.021212189 -0.044537555 -0.030663088 -0.07247304 -0.06855077 0.0050128214 -0.057737637 -0.010076009
0.00017109251 -0.022767698 -0.03725013 0.05948079 -0.0076484913 0.06862692 -0.054502554 -0.02515377
0.018137911 -0.05112894 -0.057153553 0.013559127 0.019734861 -0.054053593 0.0042789825 -0.036015365
-0.040325474 0.023356067 -0.040126495 -0.045920465 0.05176383 -0.04117066 -0.019588187 -0.087424345
0.02597898 0.03033552 -0.01795796 0.0059736 0.04215418 0.045895167 -0.040336642 0.03003419
-0.036615204 -0.006969896 -0.03968794 0.043953672 0.020568095 -0.016285233 0.05134537 0.03038572
0.036200844 -0.030268956 0.06560446 0.06082747 0.035562515 -0.07589197 -0.0035025557 -0.0022583362
0.061127543 -0.028393706 -0.02635702 0.017890617 -0.040593244 0.06604626 -0.03290532 -0.031872027
-0.029877177 -0.060197 -0.06115133 -0.052987058 0.06240553 -0.03369472 0.055511538 -0.0021021373
-0.008928079 -0.061989103 -0.0352331 0.06485933 0.026467975 0.046494085 -0.0034926492 -0.009617392
-0.013131361 0.060188144 -0.05788347 0.025188636 0.04560771 0.07753312 0.03830136 -0.015465361
-0.0072820606 -0.07227048 0.046178143 0.03231413 0.061622325 0.011530834 0.047347907 0.068327844
-0.026160046 -0.012386497 -0.053108655 -0.006755478 -0.02742141 -0.046785425 0.0059357937 -0.06692283
0.02817666 0.018028459 0.07976669 0.026483333 0.04464556 -0.0651197 0.059646793 0.0137145845
0.029990325 -0.030387787 -0.030652892 -0.054064445 0.020681934 -0.019580483 0.060282316 0.057685073
-0.013863055 -0.015162016 0.06713205 0.029771823 0.066600144 -0.031609267 0.03213921 0.04382673
-0.02254613 0.0052494146 -0.049279906 0.04122375 -0.065958574 -0.031272344 0.00717223 0.024620764
-0.06139439 -0.027332654 -0.013602463 -0.030992124 0.026099784 0.059772987 -0.016772661 -0.01593253
0.057321604 -0.03663644 0.04756778 -0.013918934 -0.052280553 0.022864478 0.032711368 0.04372616
0.033859726 -0.027145451 -0.057438698 -0.004786898 0.051768966 -0.060838893 0.06571187 0.058770817
-0.058950752 -0.02684538 -0.028148798 -0.06423685 0.011905122 -0.049441006 0.0281788 -0.0036898633
00000000: 9130 5e3d 8ea4 2f3d c300 4c3b 2a42 13bd
00000010: 1839 37bd 0ea2 db3c a55b d1bc 34ba bc3c
00000020: 3b16 673d a4b6 21bd c37e 5b3d 7fc2 d43c
00000030: 5be1 56bd 9be4 aebc 3602 713d fecc 46bd
00000040: 4400 943c e7b8 81bb 55bc 67bd 267b e2bc
00000050: ce49 0cbc f0f9 fdbc 6708 3abc 4e5a 5f3c
00000060: d665 d2bc 969b 093d 5dba 8f3d a59b ae3c
00000070: f4f3 b2bc ed2c 6fbd 28bb 0d3d dd3e 6f3d
00000080: 710f 6abc ea1d 5b3c 0675 c1bc 53b6 ef3c
00000090: 7daa c9bc fdba 7dbd 83de f33b 4a25 9e3d
000000a0: 741f 0cbb 24f8 213d 917b 2b3c d57a 00bd
000000b0: 2ebe 823c bb30 013c 9f3b 973d 3e58 4dbd
000000c0: 9f10 be3b d9ae 31bd 7245 4cbd ee9d 9fbd
000000d0: c7bf 4e3d cfbd 3dbd 32b8 0cbd 7c45 8abd
000000e0: e065 5dbd fead fabb ff98 523d 4f3a 143d
000000f0: 99e9 823d 65b3 39bd 4d7b dc3c 9a61 37bc
00000100: 9e12 253b 49fc 423d cb23 7fbd 9e2c 5bbd
00000110: ef5c 97bb a860 bfbb 3c6b 69bb 38b8 63bc
00000120: 3b01 79bd 8327 d73c eb11 d03c e1d1 f7bc
00000130: f3cf f8bc 7774 2fbb b7d1 a83c d7c3 253d
00000140: 73b1 f6bc 287a e7bc eb1b 5bbd 9295 05bd
00000150: e405 8abd 5c33 ebbb 03ce 923c 5678 793c
00000160: 2fc5 ad3c 036d 36bd 2831 fbbc bf6c 94bd
00000170: 5964 8cbd 9842 a43b 4d7e 6cbd d815 25bc
00000180: 4c67 3339 5383 babc 9893 18bd 21a2 733d
00000190: 32a0 fabb 458c 8c3d 123e 5fbd 470f cebc
000001a0: f595 943c 946c 51bd d819 6abd 1a27 5e3c
000001b0: 01ab a13c 4d67 5dbd b536 8c3b d984 13bd
000001c0: 532c 25bd 3955 bf3c ae5b 24bd 1917 3cbd
000001d0: 4f06 543d 91a2 28bd 6877 a0bc 890b b3bd
000001e0: dfd1 d43c 3282 f83c 921c 93bc 30be c33b
000001f0: dda9 2c3d 92fc 3b3d 0938 25bd 430a f63c
00000200: d3f9 15bd ba63 e4bb d28f 22bd c408 343d
00000210: 6c7e a83c 9c68 85bc 864f 523d 79eb f83c
00000220: 5647 143d 9af6 f7bc a25b 863d 3a26 793d
00000230: 00aa 113d 406d 9bbd 228b 65bb 9800 14bb
00000240: e060 7a3d eb99 e8bc adea d7bc 588f 923c
00000250: 1a45 26bd 4343 873d bbc7 06bd 3e8c 02bd
00000260: fbc0 f4bc 2191 76bd d179 7abd f508 59bd
00000270: f19c 7f3d 7a03 0abd 1160 633d 03c4 09bb
00000280: 1447 12bc 49e8 7dbd 9550 10bd f8d4 843d
00000290: 5ed3 d83c 9570 3e3d eee4 64bb 4492 1dbc
000002a0: ec24 57bc d887 763d 3817 6dbd 6658 ce3c
000002b0: 26cf 3a3d afc9 9e3d e3e1 1c3d 6d62 7dbc
000002c0: 5a9e eebb 8c02 94bd 4b25 3d3d d25b 043d
000002d0: b167 7c3d d3eb 3c3c e1ef 413d 78ef 8b3d
000002e0: 984d d6bc bcf0 4abc 7688 59bd 0f5d ddbb
000002f0: dda2 e0bc 13a2 3fbd 0c81 c23b d60e 89bd
00000300: bdd2 e63c 6bb0 933c b85c a33d 93f3 d83c
00000310: 43de 363d 7a5d 85bd 3250 743d 23b3 603c
00000320: 45ae f53c cfef f8bc c61b fbbc ae72 5dbd
00000330: 296d a93c 4067 a0bc 97ea 763d 2f47 6c3d
00000340: de21 63bc 1b6a 78bc 877c 893d 0ae4 f33c
00000350: a865 883d b878 01bd 67a4 033d a883 333d
00000360: a9b2 b8bc 4803 ac3b bad9 49bd 3cda 283d
00000370: 4a15 87bd 6e17 00bd 0705 eb3b 7cb1 c93c
00000380: af78 7bbd bbe8 dfbc dddc 5ebc 32e3 fdbc
00000390: 37cf d53c 85d4 743d d266 89bc f084 82bc
000003a0: 0fca 6a3d 1710 16bd 6fd6 423d 3e0c 64bc
000003b0: 2224 56bd 494e bb3c 5bfc 053d 341a 333d
000003c0: 7fb0 0a3d 2360 debc d744 6bbd 69db 9cbb
000003d0: b20b 543d 3432 79bd f293 863d abb9 703d
000003e0: 5876 71bd d8ea dbbc 4f98 e6bc 9c8e 83bd
000003f0: b30d 433c a782 4abd 3ad7 e63c a2d1 71bb

model.3.bias f4 [6]
-0.04528413 -0.03009043 0.019480698 0.044700697 -0.040179826 -0.027198171
00000000: da7b 39bd 3580 f6bc fc95 9f3c 1418 373d
00000010: 9a93 24bd b3ce debc
